_________________________________________________________________
Layer (type)                 Output Shape              Param #   
=================================================================
conv2d_3 (Conv2D)            (None, 26, 26, 6)         60        
_________________________________________________________________
average_pooling2d_3 (Average (None, 13, 13, 6)         0         
_________________________________________________________________
conv2d_4 (Conv2D)            (None, 11, 11, 16)        880       
_________________________________________________________________
average_pooling2d_4 (Average (None, 5, 5, 16)          0         
_________________________________________________________________
flatten_2 (Flatten)          (None, 400)               0         
_________________________________________________________________
dense_4 (Dense)              (None, 120)               48120     
_________________________________________________________________
dense_5 (Dense)              (None, 84)                10164     
_________________________________________________________________
dense_6 (Dense)              (None, 10)                850       
=================================================================
Total params: 60,074
Trainable params: 60,074
Non-trainable params: 0
_________________________________________________________________




Final CV 

Average Loss:     0.38522887223720553
Mean Loss:        0.38522887223720553
Average Accuracy: 0.94522
Mean Accuracy:    0.94522

--------------------
Metrics: [0.33140286870002744, 0.9654]
…
