_________________________________________________________________
Layer (type)                 Output Shape              Param #   
=================================================================
conv2d_1 (Conv2D)            (None, 26, 26, 6)         60        
_________________________________________________________________
average_pooling2d_1 (Average (None, 13, 13, 6)         0         
_________________________________________________________________
conv2d_2 (Conv2D)            (None, 11, 11, 16)        880       
_________________________________________________________________
average_pooling2d_2 (Average (None, 5, 5, 16)          0         
_________________________________________________________________
flatten_1 (Flatten)          (None, 400)               0         
_________________________________________________________________
dense_1 (Dense)              (None, 120)               48120     
_________________________________________________________________
dense_2 (Dense)              (None, 84)                10164     
_________________________________________________________________
dense_3 (Dense)              (None, 10)                850       
=================================================================
Total params: 60,074
Trainable params: 60,074
Non-trainable params: 0
_________________________________________________________________

Batch-size: 128

--------------------
Metrics: [0.13461722258776426, 0.9586]
--------------------====================
Confution Matrix:
--------------------
 [[ 952    0    0    1    3    4    0    2   12    6]
…
